…
WARNING:tensorflow:From /global/homes/v/vfung/.local/cori/3.6-anaconda-5.2/lib/python3.6/site-packages/keras/backend/tensorflow_backend.py:4074: The name tf.nn.avg_pool is deprecated. Please use tf.nn.avg_pool2d instead.

/global/cscratch1/sd/vfung/1_screen_copy/readenergyb_test3_all2p_backup4_backup3_branch.py:190: UserWarning: Update your `Model` call to the Keras 2 API: `Model(inputs=[<tf.Tenso..., outputs=Tensor("de...)`
  model=Model(input=[input1, input2, input3, input4], output=out)
Model: "model_4"
__________________________________________________________________________________________________
Layer (type)                    Output Shape         Param #     Connected to
==================================================================================================
input_3 (InputLayer)            (None, 2000, 9)      0
__________________________________________________________________________________________________
input_4 (InputLayer)            (None, 2000, 9)      0
__________________________________________________________________________________________________
input_5 (InputLayer)            (None, 2000, 9)      0
__________________________________________________________________________________________________
input_6 (InputLayer)            (None, 2000, 9)      0
__________________________________________________________________________________________________
model_1 (Model)                 (None, 4, 150)       155200      input_3[0][0]
                                                                 input_4[0][0]
                                                                 input_5[0][0]
__________________________________________________________________________________________________
model_3 (Model)                 (None, 4, 150)       155200      input_6[0][0]
__________________________________________________________________________________________________
concatenate_4 (Concatenate)     (None, 4, 600)       0           model_1[1][0]
                                                                 model_1[2][0]
                                                                 model_1[3][0]
                                                                 model_3[1][0]
__________________________________________________________________________________________________
flatten_1 (Flatten)             (None, 2400)         0           concatenate_4[0][0]
__________________________________________________________________________________________________
dropout_1 (Dropout)             (None, 2400)         0           flatten_1[0][0]
__________________________________________________________________________________________________
dense_1 (Dense)                 (None, 200)          480200      dropout_1[0][0]
__________________________________________________________________________________________________
dense_2 (Dense)                 (None, 1000)         201000      dense_1[0][0]
__________________________________________________________________________________________________
dense_3 (Dense)                 (None, 1000)         1001000     dense_2[0][0]
__________________________________________________________________________________________________
dense_4 (Dense)                 (None, 1)            1001        dense_3[0][0]
==================================================================================================
Total params: 1,993,601
Trainable params: 1,993,401
Non-trainable params: 200
__________________________________________________________________________________________________
2020-06-15 06:29:47.265487: W tensorflow/compiler/jit/mark_for_compilation_pass.cc:1412] (One-time war
…
